Log started at 20240809_144117
NaN values after adding indicators: 0
Rows dropped due to NaN values: 0
Model: "sequential"
┌─────────────────────────────────┬────────────────────────┬───────────────┐
│ Layer (type)                    │ Output Shape           │       Param # │
├─────────────────────────────────┼────────────────────────┼───────────────┤
│ lstm (LSTM)                     │ (None, 90, 150)        │       145,200 │
├─────────────────────────────────┼────────────────────────┼───────────────┤
│ dropout (Dropout)               │ (None, 90, 150)        │             0 │
├─────────────────────────────────┼────────────────────────┼───────────────┤
│ lstm_1 (LSTM)                   │ (None, 90, 150)        │       180,600 │
├─────────────────────────────────┼────────────────────────┼───────────────┤
│ dropout_1 (Dropout)             │ (None, 90, 150)        │             0 │
├─────────────────────────────────┼────────────────────────┼───────────────┤
│ lstm_2 (LSTM)                   │ (None, 100)            │       100,400 │
├─────────────────────────────────┼────────────────────────┼───────────────┤
│ dropout_2 (Dropout)             │ (None, 100)            │             0 │
├─────────────────────────────────┼────────────────────────┼───────────────┤
│ dense (Dense)                   │ (None, 15)             │         1,515 │
└─────────────────────────────────┴────────────────────────┴───────────────┘
 Total params: 427,715 (1.63 MB)
 Trainable params: 427,715 (1.63 MB)
 Non-trainable params: 0 (0.00 B)
Epoch 1/300
2248/2248 - 275s - 122ms/step - loss: 0.0206 - val_loss: 4.2175e-04 - learning_rate: 0.0010
Epoch 2/300
2248/2248 - 269s - 120ms/step - loss: 7.1162e-04 - val_loss: 5.3202e-04 - learning_rate: 0.0010
Epoch 3/300
…
